backend/app/models/neural_net.pt (torch, 252021 bytes, 10 tensors)

conv1.weight f4 [6, 3, 5, 5]
00000000: 69e8 2c3e b682 b3bd 1ff9 263c 296a f0bd
00000010: 4bff 323e abff 53be a7a4 e5be 9099 cbbe
00000020: 8eff 02bf 75e5 58be 71b8 8bbe d5b4 d9be
00000030: 637e 0ebf 0cac 17bf 1562 4abe 4cf1 48be
00000040: 9bd4 bdbe 8e36 04bf ab0b a4be ccc7 903c
00000050: 4bce d53e 0979 ba3e d66b 813e 63f0 dc3d
00000060: 5db6 133e 61b6 103d 951a dfbd 6941 403b
00000070: bbc5 c2bd 200f 46bb 27b4 d5bb d403 aebd
00000080: e609 0a3e a5db 1abe 6eca e2bd c424 22be
00000090: 4e3a 1ebe 0c58 703d 979e 30be 5cef be3c
000000a0: f6d6 9dbe da47 95be 4423 f7bd bdab d4bd
000000b0: 570b fb3c 4c9c c73d 7385 383e 0d53 7b3e
000000c0: 1eca e73c c90f 54bd 404c 153e 84c6 013e
000000d0: a339 953e 835f 923e ebf1 3a3e 3c90 9b3e
000000e0: 4fa2 853e e9f8 033f e4d1 b73e 780b f23d
000000f0: 9db6 8f3e 1221 403e 04c2 e93e b40b 9e3e
00000100: 53a8 793e 843b 45be e1b6 7dbd 69df 133e
00000110: d4b1 5a3e b842 123e 690f 8bbd 202e 113e
00000120: 228a 473e 13c4 a63d 2d92 abbd b71e 333e
00000130: 5159 bf3e 0e88 b43e f13f 8c3e 0689 07bc
00000140: f3da 8d3e 323e b63e 6156 c73e 819a b03e
00000150: 63c6 3c3e 3831 b03e a564 723e 57e1 9a3e
00000160: 8195 843e 766a f63d 7a7a 143e a9e7 713d
00000170: 6060 73bd 15af 163e 9614 4f3e 009a 973d
00000180: 25b8 dcbd 3279 a2be fd67 9cbe 93b2 86bc
00000190: c4ad 2fbe 2843 84be 5c23 b5be f2ad b2be
000001a0: befa 60be 8114 97be d12d d6be c6b4 02bf
000001b0: d8a9 a7be 86c8 25bd ade6 9cbe ec70 0cbf
000001c0: 588b 16bf 8c9b a0be acc3 4d3e 9225 ffbd
000001d0: d1d0 07bf d0a8 0abf 1b63 3dbe 6232 c13e
000001e0: 71fa 8dbd 36b2 99be 16b9 0cbf 6eb2 a8be
000001f0: 63e9 db3e d699 ab3c a01a 76bc 8b1c 7bbc
00000200: 7fc1 73bc e626 a03d c625 42bc cdb4 f3bd
00000210: 979f 94bc 27be 0b3e 5981 313e c0d7 a1bd
00000220: a7e3 92be 9a24 7fbe eb42 003e 4e1f e03e
00000230: 4593 783c 6c6a 60be d62c 9cbe 20e5 1a3e
00000240: f14f 213f cd85 963d 6266 7dbd ecb5 8dbe
00000250: 2dbe d43d 8e53 333f 1545 03bd 6b50 65be
00000260: 5343 bc3e 3070 0dbf 797a 733e 0544 a5be
00000270: bd1e 36be 3042 a93f 69c2 4dbf 6ce3 0ebe
00000280: fef2 94be f664 743d 87ff b43f 1fb2 62bf
00000290: 0e93 00bf 2bc2 243d 4b2a 843e 601b 913e
000002a0: 26e2 45bf 441e 303d a477 573d ea5d 32bb
000002b0: 2e25 33be ad1e 4f3c 9d8e f33e 5a8a 883e
000002c0: 5b2a 943c ee33 df3e e398 02bf 5360 863e
000002d0: 7201 e73a 1ee0 cabd 216a a03f fdf8 53bf
000002e0: 75b4 42be e9d7 813d 06a2 ea3d d36f a73f
000002f0: 94d6 83bf ac3b f3be 229f e83d 3da8 793e
00000300: be29 473e 0852 63bf d95e 933c 2c71 cb3d
00000310: d1e3 d2bd 89c8 5ebe 4aaf 9fbe 4159 4f3e
00000320: 0658 1fbe 0137 30be 1e55 a53e 7125 c8be
00000330: 08fd 763e f76e 57be 2336 81be b067 a23f
00000340: ea65 2bbf 9a4e 01be 18ff 68be 3700 033d
00000350: 13f9 ac3f afdd 1cbf 5a22 d6be 0c19 323d
00000360: a403 5c3e 9c4c 9d3e 5eb0 08bf 0827 d63d
00000370: f07d 81bd 4af1 f2bd 1bc9 c9bd 9a0c fc3c
00000380: a26e cb3e 3dcb 9ebe 1233 8abe d227 813c
00000390: d4c4 f53d e9c9 a23d 4161 cdbc 5974 dd3e
000003a0: 41c4 d23e 6586 683e 544a 763e bbd5 eb3c
000003b0: 5b90 a93e b208 5a3e 1e03 653e 1c88 6f3e
000003c0: 7e98 953d 0390 673e bdba 143e 2a36 363d
000003d0: a93a 3f3e 591b 823d 35c5 113e ebbb 3ebd
000003e0: 6843 873c c13c 273e 050f adbe b8bc 3abe
000003f0: dcb9 d73d fa12 003e 9c2f dd3d d52d 83be
0.16885532 -0.087651655 0.010191231 -0.117389984 0.17480199 -0.20702998 -0.44852182 -0.39765596
-0.51171196 -0.21181281 -0.27289155 -0.42520776 -0.556616 -0.592469 -0.19763978 -0.19623297
-0.37076268 -0.51645744 -0.32040152 0.017673396 0.41758952 0.36420467 0.25277585 0.10788038
0.14425035 0.03533018 -0.10893742 0.0029335862 -0.0951037 -0.0030221418 -0.00652172 -0.08496824
0.13480338 -0.1512285 -0.11073767 -0.15834337 -0.15451929 0.058677718 -0.17247997 0.023307495
-0.30828065 -0.2915638 -0.12067273 -0.10384319 0.030645056 0.09746608 0.18019657 0.245434
0.02829462 -0.051772866 0.14579868 0.12673384 0.29145536 0.28588495 0.18256347 0.3038348
0.26100394 0.5155168 0.3590232 0.11818594 0.2806901 0.18762615 0.45655835 0.30868304
0.24380617 -0.19260985 -0.061941985 0.14440693 0.21356899 0.14283264 -0.06790049 0.14177752
0.19486287 0.08142867 -0.0837749 0.17492186 0.3737283 0.3526005 0.27392533 -0.008272415
0.27706107 0.35594326 0.3893309 0.34492877 0.18435054 0.3441255 0.23671205 0.30250046
0.25895312 0.120320246 0.14499846 0.05905882 -0.059418082 0.14715226 0.20222697 0.0740242
-0.1077731 -0.3173309 -0.30548087 -0.016442573 -0.1715613 -0.25832486 -0.3537854 -0.34898335
-0.2197065 -0.2950783 -0.4183183 -0.5105709 -0.32746768 -0.040474437 -0.30644742 -0.54859805
-0.5880637 -0.31368673 0.20094174 -0.12458338 -0.53053004 -0.5416384 -0.18494837 0.37733752
-0.069325335 -0.30018777 -0.5496992 -0.3294863 0.42951497 0.020947378 -0.015020996 -0.015326629
-0.014877676 0.07819919 -0.011849826 -0.118997194 -0.018142505 0.13646756 0.17334498 -0.07902479
-0.2868931 -0.24916306 0.12525527 0.43773884 0.015171831 -0.21915597 -0.30502957 0.15126467
0.63012606 0.07349739 -0.061865218 -0.27677858 0.10387836 0.7004937 -0.032048304 -0.22393958
0.36770114 -0.5524931 0.23777188 -0.32278457 -0.17785163 1.3223324 -0.8037477 -0.13953942
-0.29091638 0.059666596 1.4140481 -0.8855304 -0.5022439 0.040224236 0.25813517 0.28341198
-0.772982 0.042997614 0.052604333 -0.0027216622 -0.17494652 0.012641591 0.47569743 0.26668054
0.018086603 0.43594307 -0.51014537 0.26245365 0.0017624332 -0.09906028 1.2532388 -0.828018
-0.19014151 0.0634001 0.11456685 1.3081001 -1.0299859 -0.47506464 0.11358477 0.24380584
0.19449517 -0.88797045 0.017989563 0.09933695 -0.10297359 -0.21756186 -0.31188422 0.20248891
-0.15560922 -0.17208482 0.32291502 -0.39091066 0.24119961 -0.21038423 -0.25236616 1.2687893
-0.66952384 -0.1262764 -0.2275356 0.031982627 1.3513511 -0.6127576 -0.41823083 0.043480918
0.21485764 0.3072251 -0.53394115 0.10456663 -0.06322849 -0.118624285 -0.09852811 0.030767728
0.39732844 -0.31014434 -0.2699209 0.015766058 0.120004326 0.079486676 -0.025070788 0.4325283
0.41165355 0.22707517 0.24051791 0.028788438 0.33117947 0.2129238 0.2236447 0.23391765
0.07304476 0.2261353 0.1452436 0.04448525 0.18674721 0.063528724 0.14235385 -0.04656593
0.016511634 0.1633177 -0.33800521 -0.18236053 0.10533497 0.12507239 0.108000964 -0.25620905

conv1.bias f4 [6]
00000000: fa80 423f ab89 fcbd 1ddb a93d ed79 3e3f
00000010: 1511 2c3e 0285 a3be
0.7597805 -0.123309456 0.08293746 0.74404794 0.16803391 -0.31937414

conv2.weight f4 [16, 6, 5, 5]
00000000: 6159 9bbd a130 5ebd ff9a b9bd 7584 15bb
00000010: 4275 bebd f98a 37be 6ef4 87bd 8d16 32be
00000020: ff61 2ebd f4aa cd3d 2c87 38bd da2f 57bd
00000030: 767a c13d a52f 323e 333a 243e 970f 973e
00000040: 46c8 b03e d08e 913e 04fe ef3d 2b6a 0c3e
00000050: 2fda 453e 733a 373e b887 703e fa19 303e
00000060: e714 0f3e a7a1 05be db6c ccbd 9dd8 5abd
00000070: 06dc b6bc 646e 933c d5d3 09be 7a9d cfbd
00000080: 4202 c2bd 4433 583d eed2 0a3e b6d6 e4bc
00000090: ea2e 523d 80d0 eebc 341e 373d 9b6a 843d
000000a0: a2cc 41be 6258 07be f583 9bbc 5354 04bd
000000b0: 69b1 9dbc 0ef2 3bbc 9b60 14bd e656 883d
000000c0: 178a 193d 7d2a 9a3d e69f 39bd ed15 203e
000000d0: 02c0 603a 1b79 4cbe 9bb5 13be 6ebb 7a3e
000000e0: 2ee7 fc3d 7eb9 7bbe d658 87be f4e6 eebd
000000f0: 73a8 f8bc 0aa4 99be 1ba7 82be ccf8 4dbe
00000100: 50bf 8c3b d65b 8ebe 6043 cabe fdb5 88be
00000110: 2a1f 4fbd fe8f aa3e 9d81 63be 9178 9cbe
00000120: 7c52 c03c 5eb1 cf3e 6f3f 993e bbc5 713d
00000130: 2848 8e3d c02a e93b 4caa 38bc b8f8 8bbd
00000140: 4b99 603e 86ed 093e 0e30 3dbe ebb6 b9bd
00000150: c0c9 bdbd ef11 303d fb5d 86be 5c5a 26be
00000160: a96c 42be 59c8 aa3c d8f5 63be a818 77be
00000170: a904 e6bd 1a00 293e 107a bf3e e39b 86bd
00000180: 5ae3 153e d4e5 9d3e f8b3 ad3e 7ad3 b33e
00000190: 314a c2bd 6c71 993d b6b3 38be 7056 28be
000001a0: 7fc6 2fbe 6a59 153c b927 03ba cdc1 03be
000001b0: 69ea d7bd 2597 fabd 22ef 9cbd ce0f 0bbe
000001c0: ea84 59be bbfe eebd d884 6b3c 3f0b 29bd
000001d0: ce01 d8bd 9bb4 2bbe d64d 40bb 90b7 093e
000001e0: 7e5f 8f3d 5016 6b3d b647 793d 98e7 68bd
000001f0: ae74 443e 6e5a c0bd 237f 113e e717 1b3e
00000200: a659 a03d 6572 a6bd f5ef 3e3e bb19 bf3d
00000210: 14a3 fdbd d2b4 423c 5b66 263c 1130 c53b
00000220: 699b bebd e299 933c f181 47bd bcd5 2abe
00000230: 7305 bdbd 7428 89bd 4fa0 e539 03cb 483d
00000240: b710 1e3e e9ba 49bd a04c cbbd 948e a53c
00000250: 1eaa b53d 0264 76bd b279 233e 6fc4 ec3d
00000260: a197 2f3e efe6 a7bc bdf4 683d aa11 83be
00000270: e85e 5abe 22a5 6c3d 8501 983d b486 d23d
00000280: 7e07 d0bd 6ed9 9ebe 89ee 74be 6043 94bd
00000290: ec35 f03d b48c 723e c23d 4ebe e73d 7cbe
000002a0: 673c 69bd e34d 5e3e a712 1a3e 0e5f bcbb
000002b0: 5e5e 9a3d 184c 283e 8215 ae3e 8032 0ebc
000002c0: e41f 133d f3ad 85bd fb25 b5bd 17f4 28be
000002d0: 50bc 0dbd 0881 afbe 1999 82ba 6e0a 203e
000002e0: b4fa 3cbd 212b 5f3e b1c4 693a df7d 11be
000002f0: 9e1e ef3c 4e87 81bd 9352 b53e 8452 8d3e
00000300: 3965 db3d f451 79be e1da 9dbe 5fcf a13d
00000310: ed29 9d3e c434 b53d bd14 c6bd c385 8bbd
00000320: 6f84 16be 0cf5 1cbe 417d 5b3c 37f3 06bd
00000330: 63a0 b3bd b4ba 8b3d 8ebe 2f3d 24c3 21bd
00000340: b748 e2bd 5c47 2cbd 5be8 1fbe b24b 1e3e
00000350: fb60 2c3e 472a 3dbd 7353 0abd 1780 75be
00000360: 2364 90be 4411 90bc 4f5a 533d 5be4 6abd
00000370: fe42 3fbe 3542 27be 5217 72bd 5cf0 56be
00000380: 1a30 26bd fa0b 2a3e 9279 5e3e 9aa8 5e3e
00000390: 1d0d c83d 32f4 da3d 2e66 c4bd d9ba 553c
000003a0: ae4d bc3d 6b00 8dbd bb77 70bd fbeb 713d
000003b0: 9c1d 2ebd 1840 2bbe 0206 cdbd fed7 2e3e
000003c0: e82c a8bc ffcb 5e3d 1534 3fbd 6b80 9dbc
000003d0: ca65 ed3d a04b a7bd db8c 7fbd 8740 5b3e
000003e0: bc25 1a3e 80ee 223d 8c19 783e 7555 533e
000003f0: 5914 5e3d cabd 593e 6d04 1a3e c846 423e
-0.07585407 -0.054245595 -0.09062766 -0.0022814546 -0.09299709 -0.17924108 -0.06638418 -0.17391415
-0.042573925 0.10042372 -0.045050785 -0.05253587 0.09447186 0.17400987 0.16037826 0.29504082
0.34527797 0.2842927 0.117183715 0.13712375 0.19321512 0.1789339 0.23489273 0.1719741
0.13972817 -0.13049947 -0.099817 -0.053429235 -0.022321712 0.017996974 -0.13459714 -0.10137458
-0.09473087 0.052783266 0.13557026 -0.027934413 0.051314272 -0.029152155 0.04470654 0.06465646
-0.18925717 -0.13217309 -0.01898382 -0.03230698 -0.019249635 -0.011471285 -0.036224943 0.066571996
0.03748521 0.07527635 -0.045318507 0.15633364 0.0008573533 -0.19968073 -0.14424746 0.24485561
0.123487815 -0.24582478 -0.26434964 -0.116651446 -0.03035376 -0.30007964 -0.25518116 -0.2011444
0.004295267 -0.2780444 -0.39504528 -0.26701346 -0.05056683 0.33312982 -0.22217412 -0.30560735
0.023476832 0.40565008 0.29931208 0.05902646 0.069473565 0.007115692 -0.011271071 -0.06834549
0.21933477 0.13469514 -0.18475363 -0.09068092 -0.092669964 0.042985853 -0.26243576 -0.16245407
-0.18986763 0.020847486 -0.2226175 -0.241305 -0.112313576 0.16503945 0.37397814 -0.06572702
0.14637509 0.30839407 0.33926368 0.3512228 -0.09486807 0.07492337 -0.18037304 -0.16439223
-0.17165564 0.009115556 -0.00050031726 -0.12866898 -0.10542757 -0.1223586 -0.076627985 -0.13580248
-0.21242109 -0.1166968 0.014374934 -0.04127049 -0.10547219 -0.16768114 -0.0029343269 0.1344893
0.070006356 0.057394326 0.060859405 -0.05686149 0.19185135 -0.09392248 0.14208655 0.15145837
0.07829599 -0.08127288 0.18646224 0.093310796 -0.1238462 0.011883931 0.010156239 0.006017693
-0.09306986 0.018017713 -0.048707906 -0.16683096 -0.09229555 -0.06697169 0.00043797723 0.049021732
0.15436064 -0.049250517 -0.099267244 0.020209588 0.08870338 -0.06015397 0.15964392 0.11560904
0.17147686 -0.02049586 0.056874026 -0.25599414 -0.21325266 0.05777467 0.07422165 0.10279599
-0.10157679 -0.3102526 -0.23919119 -0.07239413 0.11729035 0.23686486 -0.20140746 -0.24632989
-0.05694237 0.21709399 0.15046178 -0.005748636 0.0753753 0.16435277 0.34000784 -0.008679032
0.035919085 -0.06527319 -0.08845135 -0.16499363 -0.034603417 -0.3427813 -0.000996384 0.15628979
-0.046137527 0.21793796 0.0008917554 -0.14208172 0.029189404 -0.063246354 0.35414562 0.27602017
0.10712666 -0.24347669 -0.30831054 0.07900881 0.3069605 0.08847955 -0.09671924 -0.068126224
-0.14698957 -0.15327853 0.013396562 -0.03294679 -0.08770826 0.0682272 0.042906336 -0.03949274
-0.110490255 -0.04206024 -0.1561598 0.15458563 0.1683387 -0.046182897 -0.03377099 -0.23974644
-0.28201398 -0.017586358 0.051599797 -0.057346683 -0.18677899 -0.1633385 -0.05910427 -0.20990127
-0.040573217 0.16606131 0.21726063 0.21744004 0.09768126 0.10691108 -0.09589802 0.013045036
0.09194504 -0.06884845 -0.058707934 0.05906294 -0.042508706 -0.16723669 -0.100109115 0.17074582
-0.020529225 0.054393765 -0.04668053 -0.019226274 0.1159168 -0.08168721 -0.06239019 0.21411334
0.15053457 0.039778233 0.24228495 0.20638068 0.054218624 0.21263805 0.15040751 0.18972313

conv2.bias f4 [16]
00000000: 8e4f bd3d dfdb 70bd 0f54 7dbf ea03 17bf
00000010: 687b 43be 547b 9f3e ff9c 53bf 5faa 503d
00000020: 9b93 ebbe 0fc9 113f 3745 83be 1bb9 0e3e
00000030: fd3a 9f3f c089 0abf 824e 423e 5e0e 7c3f
0.092436895 -0.058803435 -0.9895639 -0.5899035 -0.19090044 0.3114878 -0.8266143 0.05094373
-0.46011052 0.56947416 -0.25638744 0.139378 1.2439877 -0.5411644 0.18975261 0.9845942

fc1.weight f4 [120, 400]
00000000: 4545 a9bd 56f9 c2bd 066e 6c3d eede ed3b
00000010: e072 493c 2114 83bc 2917 1dbb cc4c 9bbd
00000020: 4815 783b fa79 25bb 52a9 44bb cf30 6dbd
00000030: cf5b 9a3d 9a67 653d 756a 513d df3d aebd
00000040: 0614 8b3d 8973 84bd 9ff9 96ba 5b75 1c3d
00000050: cf44 02bd 730e a6bd 096d c5bd 5d11 be3d
00000060: 7a79 393c a2ec 823d 4e80 383d cbfd a43d
00000070: a030 4dbd 0b8c 3f3d 1aa6 18bb 102c f13d
00000080: d012 ebbc 349a 90bd dffb b53c de78 123e
00000090: c947 3fbd c13b 9a3c 4795 f8bc 43d2 d0bb
000000a0: 3d89 4c3c 52ea 5d3c 7d02 e7bc 615e c73b
000000b0: e8de 003d e687 17be 28eb 42be 2619 20be
000000c0: 8c0f 59be 66d4 19bd dc12 97bd ed82 823c
000000d0: 2353 84bc b572 213c 48db 493d 32db 9a3d
000000e0: 6e5f 9e3d b9a3 8d3d 7523 873d 86b6 a6bb
000000f0: 2ed3 803d 99db e53d 7d00 8ebd c4fd 37bd
00000100: 0a02 8fbd f3dd 803d 5784 3fbd 0bdb c33d
00000110: 937a 773d af45 f43c c727 8f3d bc92 a63d
00000120: e0bc 413e ba28 e63d d7a6 913d 3a07 9f3c
00000130: ac07 21bd cc36 12bc 797f 0c3c f8f0 293e
00000140: 3e02 27bd 91c6 c9bc 2da5 46bd bf42 993b
00000150: d672 b3bd 6394 0bbd aa25 553d 23b9 883c
00000160: bb7f 163e 9854 9c3d ffc5 773c faea 4abd
00000170: 768e 55bd 40ff 873d 3ce7 9b3c 116f b83b
00000180: 0e2b aabd 717a 47bd 2d3c debd 1022 b6bd
00000190: 0ce8 62be f9bb 99bd 165c e7bc 6c13 033c
000001a0: c14e b4bd 5a7f 58bb a2c7 bcbc 0419 c5bd
000001b0: b47d b4bd b1ad 4b3d a7c6 2d3d ed4a 49bd
000001c0: 25fe 88bb 6a59 67bc cc6d 563d ba23 593d
000001d0: 2044 2dbd e655 f7ba 9233 fdbd 5059 a23c
000001e0: d064 fc3c 2ac1 083c 4e13 2dbc aec9 3fbd
000001f0: baec 463c 765e 8dbd 47f1 523d c50e e83d
00000200: fbe9 203b 5e0c dfbd da03 c53d df65 603d
00000210: 14d2 a53d 9ee6 01bd a765 78bc 6900 893d
00000220: a472 23bd 62c6 67bd f28e 16bd 1490 06bd
00000230: 1062 25b9 ddf1 b2bc e32f 4ebd 7ca0 4fbd
00000240: 47e4 e9bc c415 0e3e 13d0 183d be86 05bc
00000250: b736 83bd 9c65 d23d 45dc 953c 22a5 82bd
00000260: f56d ebbc 78ba b6bd e10d bf3c 51ef f3bd
00000270: 78b4 91bb 3de1 68bd 83ed 04bd cd64 e83d
00000280: 92f0 5cbc c56a b0bd 15b7 9e3b 3fec 7e3d
00000290: 6d24 b5bd 821a 2d3d f165 b73b 41db b6bb
000002a0: 632e 3ebc 1872 f5bc cc60 15be c295 07be
000002b0: 5d8b 93bd 2c04 08be 3167 33bd 9589 5e3d
000002c0: 5261 1cbd 2adc a13d eaa5 b23d 1077 053e
000002d0: caed 873c 4662 9fbd 7474 743c 22b5 8e3d
000002e0: 4343 593d cee4 8bbd d6c1 a8bd 6191 9d3d
000002f0: bc08 13bd 29b4 04be 53ef b7bd 8288 adbd
00000300: 9ed5 253d 6f6d bcbd c074 b9bd d534 0e3e
00000310: 9660 ea3b 3580 cd3d 6817 043d b840 f6bc
00000320: a6bd cd3c 979b d3bc 5e48 863d 3263 9f3d
00000330: f8dc fdbd bc3d fc3c 4a56 4fbd 301d 4abd
00000340: 3598 92bc 5f1e d5bd f759 c03b 82ef 143d
00000350: 2da8 81bb d88b 8fbc 079c 2a3d b2de a53c
00000360: 8d63 443d 50e6 ad3d e647 353d 3da1 76bd
00000370: 8f97 c43c 2957 89bd 9901 af3c 0315 a3bd
00000380: 094a 5cbd 8699 16bc d88c 603c 33ea 06bd
00000390: 2811 06bc 99ed 023b 404d 173d 39c8 203d
000003a0: 40c8 5e3d 34e9 913b 0e88 273c bef9 42be
000003b0: 38dd a3bc 59c6 c63c 0a0e 733d 97eb 99bd
000003c0: 564f aebc ddf7 d8bc e8ab 043c 63f2 083d
000003d0: 218a 02be ef92 e63b 22d2 26be f20e 17bd
000003e0: bf58 18bd 3687 3fbd 3496 9c3d 8fca 5f3d
000003f0: 0ae4 363d 1fa0 1abd 780e 093e 7b49 523d
-0.08265165 -0.09520213 0.057722114 0.0072592413 0.012295455 -0.01600081 -0.0023970103 -0.07583007
0.0037854481 -0.0025249706 -0.003000815 -0.057907876 0.07537042 0.056007005 0.051126916 -0.08507895
0.067909285 -0.06467349 -0.0011518485 0.038197856 -0.031803902 -0.08108225 -0.096399374 0.092806555
0.011320466 0.063927904 0.045044236 0.0805622 -0.0500952 0.046764415 -0.0023292364 0.117759824
-0.028695494 -0.07060662 0.022214828 0.1430392 -0.04669932 0.018827321 -0.030344618 -0.0063727214
0.012483892 0.013544636 -0.028199429 0.006084249 0.03146258 -0.14797935 -0.19035017 -0.15634593
-0.21197337 -0.037556075 -0.07376644 0.01593157 -0.016152924 0.009854008 0.04928139 0.075613394
0.077330455 0.06915993 0.0659856 -0.0050876765 0.06290279 0.112235256 -0.06933687 -0.044919744
-0.06982811 0.062923335 -0.04675707 0.095632635 0.06041963 0.029818384 0.06990009 0.08133456
0.18919706 0.11238237 0.071119 0.019412626 -0.039313957 -0.008924197 0.008575314 0.16595829
-0.040773623 -0.024630817 -0.048497368 0.004677146 -0.087621376 -0.03407706 0.052037872 0.016689843
0.14697163 0.076333225 0.01512289 -0.049540497 -0.052137814 0.06640482 0.01903116 0.0056284745
-0.08308993 -0.048700754 -0.10851321 -0.08893216 -0.22158831 -0.07506556 -0.028242152 0.008000236
-0.088040836 -0.0033034892 -0.023044411 -0.09623912 -0.088130385 0.049726192 0.042425778 -0.04914372
-0.004180687 -0.014120439 0.052350804 0.053012587 -0.042301297 -0.0018870204 -0.12363352 0.019817978
0.03080979 0.008346835 -0.010563685 -0.046823196 0.012141401 -0.069027826 0.05149963 0.11330942
0.0024553526 -0.10891031 0.09619875 0.05478465 0.0809671 -0.031714074 -0.015160955 0.06689531
-0.03990425 -0.056585677 -0.036757417 -0.032852247 -0.00015772157 -0.021843845 -0.050338637 -0.05069016
-0.028551234 0.1387549 0.03730781 -0.008149801 -0.064069204 0.10273287 0.01829351 -0.06379153
-0.028738955 -0.08922285 0.023322048 -0.1191088 -0.0044465624 -0.05685543 -0.03245307 0.11347351
-0.013485091 -0.08614115 0.0048436024 0.06223702 -0.08844838 0.042261608 0.005596869 -0.0055803363
-0.011607739 -0.02996163 -0.14587706 -0.13240722 -0.07204316 -0.13282841 -0.043799583 0.054330427
-0.03817875 0.07903321 0.08723052 0.130337 0.016592879 -0.07782416 0.014920343 0.06968142
0.05304266 -0.068307504 -0.08240096 0.076937445 -0.035897 -0.1295935 -0.08981194 -0.084733024
0.040486924 -0.0920056 -0.090554714 0.13887341 0.007152627 0.10034219 0.032248884 -0.030060157
0.025114845 -0.025831027 0.06556772 0.07782592 -0.12395662 0.030791156 -0.0506194 -0.04934424
-0.017894844 -0.104061835 0.0058700996 0.036361225 -0.0039568157 -0.017522737 0.041652706 0.020247791
0.0479465 0.08491194 0.04425802 -0.060212363 0.02399805 -0.067060776 0.021363067 -0.07962992
-0.053781543 -0.009191876 0.013705455 -0.032938194 -0.008182801 0.0019978045 0.036938906 0.039253447
0.054390192 0.004452849 0.010225309 -0.19040582 -0.020002946 0.024264501 0.05933956 -0.07515638
-0.021278065 -0.026485378 0.008097626 0.033434283 -0.12748004 0.007036559 -0.16291097 -0.036879487
-0.03719401 -0.046759807 0.076458365 0.054636534 0.04465107 -0.03775036 0.13384426 0.051339608

fc1.bias f4 [120]
00000000: 1361 8b3d 80c0 4bbd c441 f33d 81b3 133d
00000010: 20b6 393c bbf5 4b3e 125f 733d 8262 793e
00000020: cbdf 133e 5ae0 6abd 21b5 ddbd 3b1c acbb
00000030: 6f28 80be 9c56 1c3d 02fc a93c 5af9 293d
00000040: 78b1 33bc 4f81 84bd bf4e 64bd a981 a2bd
00000050: 35dc 8e3e 073f 1cbd 4959 26bd e236 e5bc
00000060: ef46 503e adfa 47bc 523c 623d 5652 80be
00000070: 8691 6b3d 60c5 88bb bdd0 06be 41f9 323e
00000080: 2878 50bd 26eb 8c3d 7f16 3fbc 391c c9bd
00000090: 8357 7c3b 687b dd3a 8c12 823e cb05 bc3d
000000a0: d443 febb ad55 5f3d cda6 033d f69b 063e
000000b0: bbd0 09bd 5104 f33d a15d 11be 4ee7 dbbd
000000c0: 7586 d53d 4374 473e 95e5 d53d 3c4b 5a3e
000000d0: 9e74 8fbd 1411 a43c e972 d33c b0b3 133d
000000e0: c280 d6bc 7722 16be 4cfb 63bc 5578 a53d
000000f0: 6651 44bc 7f2b 0cbd 1590 bd3d 215b 113e
00000100: d33c 15be e9fa a43c adcf 563d 66b5 b63d
00000110: 9260 17bd 77e9 95bc df3c 4b3e cfb1 b0bc
00000120: 3a66 0b3e ebbe 09bd afe8 e83b d1b9 cd39
00000130: a83b 923c feaf 343e d757 063e e28b bcbb
00000140: 7f59 2a3e e637 093d e87c 403e 60e0 963d
00000150: abe8 453c bd92 153c 7c79 4dbe c70d 04bd
00000160: 5229 3abe 3392 233e 0170 173e e657 9fbc
00000170: 4a75 633c 6d40 5b3e 17c4 343e f477 acbb
00000180: ed52 083e 41a2 983d 22eb 5dbd 71c3 0cbd
00000190: 56aa 62bd e5ff 093e 671b 7f3d 8c52 a53c
000001a0: f172 2c3c a36a 7a3c bfe3 113c 20dd 373c
000001b0: 2d16 b4bc 27ce 92bd e49c f93d 2626 78be
000001c0: bfaa 04be 0e8c 1fbd 593b f83c 6cd4 753d
000001d0: 5fd2 aabc b9a8 a83c 58e5 3d3e fa83 0abe
0.06805625 -0.04974413 0.11877778 0.03605986 0.011334926 0.19917957 0.059416838 0.24353984
0.14440839 -0.057342865 -0.10825563 -0.005252389 -0.25030848 0.038168535 0.02075005 0.041497566
-0.010967605 -0.06469976 -0.05573916 -0.07934887 0.2790238 -0.038146045 -0.040612493 -0.027980272
0.20339559 -0.012205762 0.055233307 -0.25062817 0.05751183 -0.0041739196 -0.13165565 0.17477895
-0.05089584 0.068807885 -0.011663078 -0.09819836 0.003850431 0.001689774 0.25404775 0.091807924
-0.0077595506 0.054525066 0.032141495 0.13145432 -0.033646327 0.11866058 -0.14195873 -0.10737477
0.10426036 0.19477944 0.1044418 0.21317762 -0.07004665 0.020027675 0.02581163 0.036060035
-0.026184443 -0.14661585 -0.013914894 0.08079592 -0.0119822975 -0.03422117 0.09255997 0.14194919
-0.14573984 0.020139175 0.05244415 0.08921318 -0.03695733 -0.018299801 0.19847439 -0.02156916
0.13613215 -0.03362934 0.007107816 0.0003923909 0.017850712 0.1764526 0.13119446 -0.00575398
0.16635703 0.033500575 0.18797648 0.07367015 0.012079398 0.009129223 -0.20065874 -0.0322397
-0.18179825 0.1597374 0.1478882 -0.019451093 0.013882944 0.21411295 0.17652927 -0.005263323
0.13312884 0.074528225 -0.05417932 -0.034366075 -0.055338226 0.13476522 0.062281992 0.020180963
0.010525451 0.015284213 0.008904397 0.011222154 -0.02198323 -0.07168227 0.12188128 -0.24233302
-0.1295576 -0.038951926 0.030301737 0.060017034 -0.020852266 0.020588266 0.18544519 -0.13526908

fc2.weight f4 [84, 120]
00000000: 2d72 bcbd ebf0 aa3d 3af1 b7bd 1684 c7bd
00000010: e844 58be c7b5 10bd 931b 36be d547 eebd
00000020: fed7 ae3d 6f0b 5c39 d4d6 dc3d fa15 c6bb
00000030: 51a2 883e 3d39 233d 38c9 81bd ce33 aabd
00000040: 259f e8bd 4040 493d a4b6 123e 82ba 0b3e
00000050: 11bc fabd f71b e03c d273 013d 74c1 0fbe
00000060: 8eec 3e3d 804f d03b 7583 6c3c 3812 083e
00000070: f771 34bd 3fbd ab3c 316e 853e a284 02be
00000080: 9ba0 9d3d 7fe0 91bb 6684 853c e91c fdbc
00000090: ba1e 76bd bed3 893c ed25 283d d346 a8bc
000000a0: 3560 373e 7837 703d 0de3 e6bd 6435 fbbd
000000b0: e391 463d c060 77bb 6393 a63d 187a 073e
000000c0: 48bf dcbc 93bb 86bd 41e0 debc 563f 03bd
000000d0: 1924 74bd 3250 bebd 37ab 573e 922f 003e
000000e0: 4c21 b2bc 84f9 d03d 4e18 17bd 1bdb c43c
000000f0: 8bc8 0fbe 06f1 003e ba1b 903d 18c2 66bd
00000100: 80af f73d d2ae af3d 888e c5bd 0404 5fbd
00000110: d798 06bc 1891 3d3d 8563 3e3d 645f 6f3d
00000120: cc25 d8bd ae67 343e d4d1 abbc 5fe5 1ebe
00000130: ff32 3dbd eca1 bcbd 0556 0dbe c79b b3bd
00000140: cbb8 353c 6abc 883e 0706 833d b239 d63c
00000150: 0d90 27be 37e0 563d e88f 0a3c 8dfe bdbd
00000160: 141b d63d b830 9a3d fc23 12bc 2a31 1ebd
00000170: 8175 adbd 0c2f 323c 0708 f0bd 2399 2b3d
00000180: cfd2 12bc 6f4a e1bb 2847 193e 1859 f83b
00000190: 8361 2e3d ebcc 263d a4b2 913c 296a 8c3c
000001a0: 2ce6 9e3d 967f 7cbd e2ae 8f3d 3e91 ebbd
000001b0: 9c6c 89bd 9c6b 083e 62a7 2bba e6f6 b03d
000001c0: e2cc e73d e967 0bbd 022d ffbc cce7 23be
000001d0: 471b 733c e44b 3fbd 2ef6 e7bc 7cb8 a7bd
000001e0: 16ce cebc 8b20 9d3c 52fd 58bd 2cb7 5d3d
000001f0: f387 63bd 6e53 4dbc a460 3f3d 0266 0abd
00000200: 69a1 55bd 3859 27bd cdfb c33b 81a0 35bd
00000210: 97e7 8abd b93a e93c fd3d 8f3c 5d28 8bbd
00000220: abd6 fe3c 1ee8 8e3c 0637 98bd 7ce5 183d
00000230: b801 91bd 5719 a33b 348d 393d 2326 b1bc
00000240: fbaa 6bbd e49b 8aba 7824 733d aba5 893d
00000250: cd13 5abc b5d3 843c 6a1f 68bd 7427 4cbc
00000260: 6358 03bd ed8e 1ebd 9484 9cbd 5eac 5cbc
00000270: da2e 5c3d 23a1 ccbc 46dc c03d 16e6 b3bb
00000280: 0332 023e ad04 1fbc 937f 333d f3d8 9c3c
00000290: 060f c53d 8cf2 bebc e338 06bd 574b 6dbb
000002a0: 2449 5c3d e54d 18bd c405 763d 56e9 edbc
000002b0: 99c5 aebd 0ef1 35bd 0cc9 e43a 9f80 973d
000002c0: e9a8 9fbc 05e7 17be 1f5d 5b3d d322 7bbd
000002d0: aadc c9bb 54a0 19bd 72d9 c0bc 22fa 42bd
000002e0: d2f2 68bd e645 be3c caa7 4fbd 7a4d a43c
000002f0: b4f2 0cbb 95f8 9bbd b272 75bd efd1 4cbc
00000300: 4c2e 11bc eb66 b03d 0776 5d3b 0073 b9bc
00000310: 6207 e63c c79b 5b3c c8dc b03c 7351 983c
00000320: f29a 023d 074b a93d 461b fb3c f32e f43c
00000330: d77e 4bbc ca81 1cbc 483e 94bd 312e b53c
00000340: d512 bfbd cf08 0c3c 865f 043e 22af 963b
00000350: ddfb f13b 6bba 643d 0924 143d d440 0abc
00000360: d46c 3b3d 8df9 a9bd 8431 333d 4289 c9bc
00000370: d31d 01be fcef 98bc 1cba 88bd 4c2d 403b
00000380: dd74 2b3d 3fc7 10bd 6f7a 1c3d 282f e63c
00000390: 53fe 5ebd ccc0 433d 75e9 a9bb 3e60 2bbd
000003a0: f6e4 793d 8601 42bd 29d0 2cbc e7be e0bc
000003b0: 58bb ac3c 49ab 6dbd c30f 483d 02a0 37bd
000003c0: 2eaa f23d 95d0 74bd f790 34be 2e10 523e
000003d0: 191d 81bd f246 d13d b90e 05be 9ac2 83bd
000003e0: 2a7b 1d3e 8da4 51bc 057a 09be 4cf3 f7bd
000003f0: c22a 75bc deb0 9d3d 7342 0c3e 0ff8 73bd
-0.09201465 0.08346733 -0.08981557 -0.0974199 -0.21120036 -0.035329606 -0.17783956 -0.116347946
0.08537291 0.00020985094 0.10783163 -0.0060451003 0.26686338 0.03984951 -0.063372076 -0.08310662
-0.113584794 0.04913354 0.14327484 0.13645366 -0.12242902 0.027357085 0.031604595 -0.1403864
0.046612315 0.0063571334 0.014435639 0.132882 -0.044053998 0.020964263 0.26060632 -0.12745908
0.07696649 -0.004451811 0.016298484 -0.030897574 -0.060087897 0.0168246 0.041051794 -0.020541584
0.17907794 0.05864665 -0.11273775 -0.12266043 0.048478972 -0.0037746876 0.081335805 0.13230169
-0.026946679 -0.06578746 -0.027206542 -0.032042824 -0.059604738 -0.0929264 0.21061407 0.12518147
-0.021744393 0.10203841 -0.036888413 0.024030259 -0.14041345 0.12591943 0.070365384 -0.056337446
0.12094021 0.08578266 -0.09646326 -0.05444719 -0.008215151 0.04628095 0.046481628 0.05844058
-0.10554084 0.17617676 -0.020974077 -0.15517186 -0.04619121 -0.09210572 -0.13802345 -0.087699465
0.011091421 0.2670625 0.06397634 0.026150558 -0.16363545 0.05245992 0.0084571615 -0.09277067
0.104543835 0.075288236 -0.008919712 -0.038621105 -0.08469678 0.010875475 -0.11720281 0.04189409
-0.0089613935 -0.0068753283 0.1496855 0.00757898 0.042573463 0.04072277 0.017785378 0.017140465
0.077587456 -0.061645113 0.07015778 -0.11502312 -0.06710169 0.133223 -0.00065480743 0.08640842
0.11318375 -0.034034643 -0.031149391 -0.16006392 0.014838046 -0.046703234 -0.02831563 -0.081894845
-0.025244754 0.019180557 -0.05297596 0.054129764 -0.055549573 -0.012532098 0.046723023 -0.03378869
-0.052155886 -0.04085657 0.0059809447 -0.04434252 -0.067824535 0.028470384 0.017485613 -0.06794808
0.031108221 0.017444666 -0.0743237 0.03732823 -0.07080406 0.004977386 0.045300677 -0.02162463
-0.057536107 -0.0010575023 0.05936095 0.06721052 -0.013310385 0.016214231 -0.056670584 -0.012460578
-0.032066714 -0.038710523 -0.07642475 -0.01346883 0.05375562 -0.02497918 0.09417014 -0.005490075
0.1271439 -0.009705705 0.043822836 0.019146418 0.09622006 -0.023309015 -0.032769095 -0.0036208236
0.05378069 -0.03718366 0.060064092 -0.029041927 -0.085337825 -0.04441934 0.0017454936 0.073975794
-0.019489722 -0.1483422 0.053555604 -0.061312508 -0.0061603384 -0.037506416 -0.023541186 -0.047601826
-0.056872196 0.02322669 -0.050697125 0.020056475 -0.0021506967 -0.07615773 -0.059923835 -0.012501224
-0.008861136 0.0861338 0.0033792274 -0.022637844 0.028079692 0.013403839 0.021589652 0.018593526
0.03188605 0.082662635 0.030652653 0.029807543 -0.012420378 -0.0095524285 -0.07238442 0.022116752
-0.09329764 0.008547022 0.12927064 0.004598514 0.007384761 0.055841845 0.03616718 -0.008438308
0.045758083 -0.08299551 0.043748394 -0.024601582 -0.12609033 -0.018669121 -0.066761225 0.0029323874
0.041859496 -0.035346266 0.0382027 0.028098658 -0.05444176 0.047791287 -0.005185301 -0.04183983
0.06100937 -0.047364734 -0.010547676 -0.02743478 0.021085426 -0.05802468 0.048843157 -0.04483033
0.118488654 -0.05976923 -0.17633425 0.20513985 -0.06304378 0.1021861 -0.12993897 -0.06433602
0.15379015 -0.01279558 -0.13425453 -0.12106952 -0.014963808 0.0769975 0.13697223 -0.05956274

fc2.bias f4 [84]
00000000: 84a4 01be af8f 473c 29e6 893e 6012 573c
00000010: 5598 7b3e deaf 82bd c0ed 94bd 0244 a6bd
00000020: 9fec a93c 4a5b 06be f768 a4bb 4793 c03e
00000030: 27a1 23be 6f3f 8a3e 2838 a4bd 4ce6 54bd
00000040: e22d 3d3d 0907 c53d 3e15 08bc 115e 59bd
00000050: c758 813c a22b 49bc 682d 8cbd b9d9 0b3e
00000060: ee3f 393e ca1a 6abd 7c0c 7abd 0020 b33d
00000070: 5620 97bc 0a3f 1c3e ab34 4b3d 4419 27bd
00000080: c74c 6c3e ae53 043d 5c1b 743d 02e1 0dbd
00000090: 4a24 6f3d 339a 4bbd 5b7d 82bd b150 a73b
000000a0: c4bb 2fbd 11d5 d5bc a11c 7fbc 2da8 2e3d
000000b0: 1438 febc daea 093e aeed 0c3e 5cd3 44bd
000000c0: 0fac 963d 4e5c 0f3f 5b25 a7bd 1acd 2a3e
000000d0: 9ef2 e23d fa3e 083e a1f9 983e a536 6e3e
000000e0: 28d7 203d 8b27 33be b018 cd3d 45a8 fb3d
000000f0: 79d1 593e 0b14 823d 782d 1a3e f95c ac3e
00000100: bd27 363d 5358 acbc 3180 9abd c2d9 edbc
00000110: c3ba 203d 9857 ca3e 0264 6bbd 8025 4e3d
00000120: 2ed2 923e b8ac 49bd dbf8 3a3d 9723 92bd
00000130: 3bcb 233e 9023 4e3e 1b83 2e3d 64a3 3b3e
00000140: 83c6 4fbd 1e28 8b3e 59c4 2d3e 24f3 963e
-0.12660414 0.012180253 0.2693341 0.01312694 0.24569829 -0.063812 -0.0727191 -0.0811844
0.020742713 -0.13120762 -0.0050173956 0.37612364 -0.15979443 0.2700152 -0.080185235 -0.05197744
0.046186335 0.096204825 -0.008305846 -0.053068224 0.015789403 -0.012278469 -0.06844598 0.13657273
0.18090793 -0.057154454 -0.061047062 0.08746338 -0.018448036 0.15258422 0.049610775 -0.04079558
0.23076163 0.032306366 0.059596404 -0.034638412 0.058384217 -0.049707603 -0.06371566 0.0051060547
-0.042903677 -0.026102575 -0.0155707905 0.042640854 -0.0310326 0.13468495 0.13762543 -0.04805313
0.07357036 0.5600022 -0.08161422 0.16679803 0.11081432 0.13305274 0.29877952 0.23263033
0.03926769 -0.17495553 0.100144744 0.12287954 0.21271314 0.06351479 0.15056407 0.33664683
0.04447149 -0.02103821 -0.07543982 -0.0290345 0.03924061 0.39519954 -0.05746842 0.05032873
0.2867598 -0.049236983 0.045647483 -0.071356945 0.15995495 0.20130754 0.0426055 0.18324047
-0.050726425 0.27179044 0.16969432 0.29482377

fc3.weight f4 [10, 84]
00000000: b411 4b3e c5f1 8abd ba29 513d 3e48 a3bd
00000010: b7a4 2a3e c211 963c eb2e 21be aed9 133e
00000020: c75f 823e bb11 9cbd 7057 8bbe 667e f23d
00000030: 1c22 943e ad79 77be 5712 32be 80b2 50bd
00000040: a5e9 7c3e f08d 4a3e e6af 28bd 5c4c 4a3d
00000050: 9e84 fe3b 0c91 413d feff 963e f4eb 34be
00000060: 6b0c f23d 0bdc 813e a98c 033e 2c31 0b3d
00000070: f132 fa3e 3047 333e c7e6 8d3e d9dd 2abd
00000080: dd0e b3be 9b90 1f3e e82c 9c3e 0145 913e
00000090: e08e 9ebd 6076 893c 27ed 4bbe 8e6f febd
000000a0: 76bd a83d 1465 77bd da0f 2bbe d792 2e3e
000000b0: 5360 823e e134 29be 48b5 e3bd 14b6 123e
000000c0: 79da 2b3e f19a 9dbe e8b5 9b3c c58b 8e3e
000000d0: fc9f bebe 01f5 d83d 88d5 233e 4a6d 57be
000000e0: 2784 03be 046a 6a3e a665 bb3d c283 85be
000000f0: d1bc e4bd ac91 96be 0869 363d e941 bcbe
00000100: eab4 3bbc 628a c83e f76e b0be aeb4 c8be
00000110: dcf5 8a3e 4ee0 41be eaab b2bd b75a 5bbe
00000120: 2552 44be 79a9 c23d b2c9 4c3e a077 b73e
00000130: 19e4 52bd 6147 373e ba36 3cbe e602 a2be
00000140: 1f6b 6ebd 3540 9f3e b55b 1a3e 1c1b 1abf
00000150: 968f 9f3e e832 a33d e22f 72bc 7a9c dabd
00000160: a9d7 33be c564 b23d 292c 313e 4206 893e
00000170: d5d7 b63b 1c2d 373e da5f 513e 75ab 08bf
00000180: dbc1 073e 532a 44be 58f2 bf3e 1452 c33c
00000190: 1880 523e 1071 93be 76c2 e4bd d8a4 173d
000001a0: db12 a8bd 243a 36bd b5be 1a3e 48fa a2bd
000001b0: 44ee b2be e956 e4bd 5944 033f 9cbb c3bd
000001c0: 86e7 c9bd 8d56 e13d 094a d5bd 759a 273e
000001d0: 63f0 383e 9988 043d b620 44be 2784 f23d
000001e0: df07 923d 7ab7 65bd 6145 773e 254f 1fbe
000001f0: 2969 98bc b3ca 3a3d db47 1f3d 970e 0a3c
00000200: 96d1 2a3e e4b9 523e f122 c93d 21b1 9abc
00000210: cad7 03bf 0cb4 c5be 7b52 5c3d 14f3 3bbe
00000220: 3e7f c43a 2450 f7bd 7b4c 39be e27d e2be
00000230: 6b8a 063f f3d3 8b3e 9347 c13e 04ef 95bd
00000240: 1900 23bc fa1e 31bd c873 a8bd f858 4fbe
00000250: 346b f2bc 56cf 333e 8e31 653d 20b0 a03e
00000260: 02d8 933e cad7 b2be bf45 c1bd db7e 02bd
00000270: c516 fd3d b095 233d 10a9 0c3e 9a66 90be
00000280: ac9c 80be 102c a3be 62c3 0b3e f5cf cbbd
00000290: 5b57 343d d407 a0be 4233 fbbc a6b2 8a3e
000002a0: 7760 0bbe 91bd 84bd 658b a0be 6d9c 9f3e
000002b0: 5be8 ab3e c42a ee3d ddeb 683e 0fa5 60be
000002c0: f482 843d 722c 6bbe 6187 253e 04a5 6b3d
000002d0: b047 4a3e 01d6 ba3e 74ef 76be 5b99 f23b
000002e0: 6392 873d c202 dbbd c348 9fbe 7f8c cf3d
000002f0: 33cd 573c 1df6 72be af2b 283d 61e3 a93e
00000300: 0da9 b53e 0fec d0be c632 073d c1eb 24bc
00000310: 6377 cc3d 524f b23e d58b 92be 3e02 6b3d
00000320: 61f9 91be 60c3 fd3d 4f4f 893e 7720 d0be
00000330: 71aa 34be a8b9 133e 31e1 0ebe 34fe 90be
00000340: 5017 6d3d aa44 1e3d 9f5e b73e a29a 83be
00000350: c67e bf3e 5f3f b33d 7923 523d 419e 6cbd
00000360: 0110 e4bd 8112 33be 6ae0 64be 229c a33e
00000370: a5fc 713d 8d74 31bd 0c5b efbd 0c1b d13e
00000380: 4b5d 17be b806 5f3d c3be 8bb8 b8d0 71be
00000390: c5e4 963d c497 693d 41fb e6be 5435 9f3d
000003a0: 8012 c93d 133c af3d 54b5 bcbd 4ce5 d53c
000003b0: 2054 76be 05f4 2a3e 632f 933d 2a98 2dbd
000003c0: 2b05 143e f39e 9b3e 52b8 0dbe 81e0 173e
000003d0: 5306 933e 551f 043f 21d0 713e 8a3c ac3d
000003e0: 9d04 f1bd 6ab7 abbd 8a1f 3d3e 1dc1 553e
000003f0: f79c 03be 5c56 87bd 0ae0 c5bb 5658 2b3d
0.19830972 -0.06784395 0.051065184 -0.079727635 0.16664396 0.018319014 -0.15740554 0.14438507
0.25463697 -0.07620569 -0.27215147 0.11840515 0.28932273 -0.2416751 -0.17389809 -0.05095148
0.24698503 0.19780707 -0.041183375 0.04938923 0.007767274 0.047257468 0.29492182 -0.17668134
0.11818775 0.25363192 0.12846626 0.03398244 0.4886699 0.17507625 0.27715132 -0.041715477
-0.34972277 0.15582506 0.3050301 0.28372958 -0.07742095 0.016780078 -0.19914685 -0.12423621
0.08239262 -0.06039913 -0.16705266 0.17048202 0.25464115 -0.16524078 -0.11118561 0.1432727
0.1678256 -0.30782273 0.019007638 0.2784101 -0.37231433 0.10593606 0.15999424 -0.21037784
-0.12843381 0.22892004 0.09150247 -0.26077086 -0.11168826 -0.29408014 0.04453376 -0.36769035
-0.0114567075 0.39168078 -0.3445966 -0.39200348 0.271407 -0.18933222 -0.08724196 -0.21421324
-0.1917196 0.095049806 0.19998816 0.35833454 -0.051487062 0.17898323 -0.18380252 -0.31642836
-0.058207627 0.31103674 0.15074046 -0.60197616 0.31164235 0.07968694 -0.014781924 -0.10674377
-0.17562737 0.087106265 0.17302002 0.26762587 0.0055799284 0.17888302 0.2044672 -0.5338662
0.13257544 -0.1915677 0.3748958 0.023842849 0.20556676 -0.28797197 -0.11169903 0.03702244
-0.082067214 -0.04448904 0.15111811 -0.079578936 -0.34947407 -0.11149389 0.51276165 -0.09557268
-0.09858613 0.110028364 -0.10414512 0.16367514 0.1806045 0.032356832 -0.19153103 0.11841612
0.071304075 -0.05608318 0.2414756 -0.15557535 -0.018604832 0.045603465 0.038886886 0.00842633
0.16681513 0.20578724 0.09821118 -0.01888329 -0.5150114 -0.38613927 0.053789597 -0.18354446
0.0014991534 -0.120758325 -0.18095581 -0.44236666 0.5255496 0.27310142 0.3774992 -0.07320979
-0.009948754 -0.043242432 -0.082252085 -0.20248783 -0.029592134 0.17559561 0.055955462 0.31384373
0.28875738 -0.3493026 -0.09437131 -0.03185926 0.123578586 0.039937675 0.13736367 -0.2820328
-0.2511953 -0.31869555 0.13648751 -0.09951774 0.04402862 -0.31255972 -0.03066409 0.27089423
-0.13611017 -0.064814694 -0.3135635 0.3117403 0.3357571 0.11629251 0.22746225 -0.21937965
0.0647029 -0.22966173 0.16164924 0.057530418 0.19753909 0.36491397 -0.24114782 0.0074035353
0.06619718 -0.106938854 -0.311102 0.101342194 0.013171482 -0.23726697 0.041057285 0.3318129
0.35480538 -0.40805098 0.033007406 -0.010065974 0.09983709 0.34826142 -0.28622308 0.057375185
-0.28510574 0.123907804 0.2681832 -0.4064977 -0.17643143 0.14426291 -0.13953091 -0.28318942
0.05788356 0.038639702 0.35814378 -0.25703913 0.37401408 0.087523215 0.05130336 -0.05776811
-0.11135865 -0.17487527 -0.22351232 0.31955057 0.05907883 -0.043324042 -0.11687288 0.40840948
-0.14781682 0.054449767 -6.663569e-05 -0.23614776 0.07367853 0.0570295 -0.45113567 0.077738434
0.09817982 0.0855638 -0.09214273 0.026110314 -0.24055529 0.16694649 0.07186773 -0.042381443
0.14455096 0.30394706 -0.13839844 0.14831735 0.28715762 0.5161031 0.23614551 0.084099844
-0.11768458 -0.08384593 0.18469062 0.20874448 -0.12852846 -0.066082686 -0.0060386704 0.04183229

fc3.bias f4 [10]
00000000: 9164 2cbe 6733 f6be df0a c13d dbfb ab3e
00000010: 63e3 2e3f 9b9e 323d f836 dc3d 8ee5 68be
00000020: 8dfc 3a3e 8cc4 f5be
-0.16835238 -0.48086092 0.094259016 0.33590588 0.68315715 0.04360829 0.10752672 -0.22743818
0.18260403 -0.48001516
